…
('A', 'T', 'G', 'C', 'A', 'A', 'C', 'C', 'A', 'G', 'A', 'T', 'G', 'C', 'A', 'T', 'A', 'T', 'C', 'A', 'C', 'C', 'A', 'G', 'A', 'A', 'C', 'A', 'A', 'T', 'G', 'T', 'A', 'C', 'A', 'T', 'A', 'A', 'G', 'C', 'A', 'T', 'T', 'G', 'G', 'T', 'G', 'C', 'C', 'C', 'C', 'G', 'G', 'T', 'T', 'T', 'T', 'A', 'T', 'G', 'C', 'C', 'A', 'C', 'A', 'G', 'C', 'C', 'A', 'T', 'A', 'A', 'P', 'P', 'P', 'P', 'P', 'P', 'P', 'P', 'P', 'P', 'P', 'P', 'P', 'P', 'P', 'P', 'P', 'P', 'P', 'P', 'P', 'P', 'P', 'P', 'P', 'P', 'P', 'P', 'P', 'P', 'P', 'P', 'P', 'P', 'P', 'P', 'P', 'P', 'P', 'P', 'P', 'P', 'P', 'P', 'P', 'P', 'P', 'P', 'P', 'P', 'P', 'P', 'P', 'P', 'P', 'P', 'P', 'P', 'P', 'P', 'P', 'P', 'P', 'P', 'P', 'P', 'P', 'P', 'P', 'P', 'P', 'P', 'P', 'P', 'P', 'P', 'P', 'P', 'P', 'P', 'P', 'P', 'P', 'P')
loaded 10000 lines in dataset
Generator_lang(
  (fc1): Linear(in_features=128, out_features=79872, bias=True)
  (block): Sequential(
    (0): ResBlock(
      (res_block): Sequential(
        (0): ReLU(inplace=True)
        (1): Conv1d(512, 512, kernel_size=(5,), stride=(1,), padding=(2,))
        (2): ReLU(inplace=True)
        (3): Conv1d(512, 512, kernel_size=(5,), stride=(1,), padding=(2,))
      )
    )
    (1): ResBlock(
      (res_block): Sequential(
        (0): ReLU(inplace=True)
        (1): Conv1d(512, 512, kernel_size=(5,), stride=(1,), padding=(2,))
        (2): ReLU(inplace=True)
        (3): Conv1d(512, 512, kernel_size=(5,), stride=(1,), padding=(2,))
      )
    )
    (2): ResBlock(
      (res_block): Sequential(
        (0): ReLU(inplace=True)
        (1): Conv1d(512, 512, kernel_size=(5,), stride=(1,), padding=(2,))
        (2): ReLU(inplace=True)
        (3): Conv1d(512, 512, kernel_size=(5,), stride=(1,), padding=(2,))
      )
    )
    (3): ResBlock(
      (res_block): Sequential(
        (0): ReLU(inplace=True)
        (1): Conv1d(512, 512, kernel_size=(5,), stride=(1,), padding=(2,))
        (2): ReLU(inplace=True)
        (3): Conv1d(512, 512, kernel_size=(5,), stride=(1,), padding=(2,))
      )
    )
    (4): ResBlock(
      (res_block): Sequential(
        (0): ReLU(inplace=True)
        (1): Conv1d(512, 512, kernel_size=(5,), stride=(1,), padding=(2,))
        (2): ReLU(inplace=True)
        (3): Conv1d(512, 512, kernel_size=(5,), stride=(1,), padding=(2,))
      )
    )
  )
  (conv1): Conv1d(512, 5, kernel_size=(1,), stride=(1,))
)
Discriminator_lang(
  (block): Sequential(
    (0): ResBlock(
      (res_block): Sequential(
        (0): ReLU(inplace=True)
        (1): Conv1d(512, 512, kernel_size=(5,), stride=(1,), padding=(2,))
        (2): ReLU(inplace=True)
        (3): Conv1d(512, 512, kernel_size=(5,), stride=(1,), padding=(2,))
      )
    )
    (1): ResBlock(
      (res_block): Sequential(
        (0): ReLU(inplace=True)
        (1): Conv1d(512, 512, kernel_size=(5,), stride=(1,), padding=(2,))
        (2): ReLU(inplace=True)
        (3): Conv1d(512, 512, kernel_size=(5,), stride=(1,), padding=(2,))
      )
    )
    (2): ResBlock(
      (res_block): Sequential(
        (0): ReLU(inplace=True)
        (1): Conv1d(512, 512, kernel_size=(5,), stride=(1,), padding=(2,))
        (2): ReLU(inplace=True)
        (3): Conv1d(512, 512, kernel_size=(5,), stride=(1,), padding=(2,))
      )
    )
    (3): ResBlock(
      (res_block): Sequential(
        (0): ReLU(inplace=True)
        (1): Conv1d(512, 512, kernel_size=(5,), stride=(1,), padding=(2,))
        (2): ReLU(inplace=True)
        (3): Conv1d(512, 512, kernel_size=(5,), stride=(1,), padding=(2,))
      )
    )
    (4): ResBlock(
      (res_block): Sequential(
        (0): ReLU(inplace=True)
        (1): Conv1d(512, 512, kernel_size=(5,), stride=(1,), padding=(2,))
        (2): ReLU(inplace=True)
        (3): Conv1d(512, 512, kernel_size=(5,), stride=(1,), padding=(2,))
      )
    )
  )
  (conv1d): Conv1d(5, 512, kernel_size=(1,), stride=(1,))
  (linear): Linear(in_features=79872, out_features=1, bias=True)
)
[*] Checkpoint 299 found at ./checkpoint/realProt_50aa/!
Iteration [9/4000] - loss_d: -11.858514785766602, loss_g: 0.6406071186065674, w_dist: 15.334112167358398, grad_penalty: 3.475597381591797
Iteration [19/4000] - loss_d: -12.13932991027832, loss_g: 0.9416943788528442, w_dist: 16.600866317749023, grad_penalty: 4.461535930633545
Iteration [29/4000] - loss_d: -12.143571853637695, loss_g: 2.0107598304748535, w_dist: 14.109293937683105, grad_penalty: 1.9657224416732788
…
